models/checkpoints/model_iter_40.pth (torch, 933282 bytes, 46 tensors)

conv_in.0.weight f4 [64, 3, 3, 3]
0	0xbd5519ab	-0.052026432
1	0x3d4c0f78	0.04981944
2	0x3e1ea770	0.1549356
3	0x3d5be0b2	0.053681083
4	0xbbeefcca	-0.0072933184
5	0x3d39b06b	0.04533426
6	0x3cc98e30	0.024603933
7	0xbe74f173	-0.2392023
8	0x3e3a115c	0.18170685
9	0xbdcb36cf	-0.09922563
10	0x3de7b73e	0.113142475
11	0xbe38db5c	-0.18052429
12	0xbdd80f7f	-0.10549831
13	0xbe0328ee	-0.12808582
14	0xbd5991b8	-0.053117484
15	0x3e48a663	0.19594721
16	0xbe250e70	-0.16118789
17	0x3e4a48f8	0.19754398
18	0xbd377877	-0.04479262
19	0xbdd19a14	-0.10234466
20	0x3d9d7090	0.07687485
21	0xbd1eefa0	-0.038802743
22	0x3e2fddb8	0.17174423
23	0xbc71f49a	-0.01476779
24	0xbd75218e	-0.059846453
25	0xbdb65db9	-0.08904595
26	0x3dc16f51	0.0944506
27	0xbcabf65a	-0.020991493
28	0xbdb730f8	-0.08944887
29	0x3d9e717d	0.0773649
30	0xbca1809b	-0.019714644
31	0x3cdbae7a	0.026816595
32	0x3d99553d	0.07486961
33	0x3e20ca98	0.15702283
34	0xbe13ae4e	-0.1442196
35	0xbdcaf1d4	-0.09909406
36	0x3e34f6de	0.17672297
37	0x3e5344aa	0.20631662
38	0x3e561ec7	0.20910178
39	0x3d9580d1	0.072999604
40	0xbe4436de	-0.19161555
41	0x3e83fab7	0.25777218
42	0xbdd4c30d	-0.103887655
43	0xbd0102d8	-0.031496853
44	0xbd979d73	-0.07403078
45	0xbe3ae281	-0.18250467
46	0x3df922de	0.121648535
47	0x3dbcf709	0.09226806
48	0x3d2c2022	0.04202283
49	0xbdd6da54	-0.104908615
50	0xbdfc669e	-0.1232426
51	0x391c05ac	0.00014879432
52	0x3e4d5901	0.20053484
53	0x3d2b73ae	0.041858368
54	0xbd179405	-0.037006397
55	0x3e5c8b69	0.21537556
56	0x3e31ff03	0.17382436
57	0x3e0f65c5	0.14003666
58	0x3e0c12b2	0.13679007
59	0x3e1f0022	0.15527394
60	0xbd56396c	-0.052300856
61	0x3d893642	0.06699802
62	0x3e0151fb	0.1262893
63	0xbda5b84b	-0.08091792
64	0x3e45acb8	0.19304168
65	0x3e86b1b8	0.26307464
66	0x3d850087	0.06494241
67	0x3cf82d97	0.030295176
68	0x3dc70afd	0.09718893
69	0x3d67c484	0.056583896
70	0x3dc699ea	0.096973255
71	0xbe94d874	-0.2907139
72	0xbc4087fc	-0.011751171
73	0x3d713906	0.058892272
74	0xbe806ffd	-0.2508544
75	0x3dac09f3	0.08400335
76	0x3dc05bd9	0.093925186
77	0xbd98114e	-0.074251756
78	0x3e1986af	0.14992784
79	0x3e0dfd44	0.13866144
80	0x3daf8293	0.08569827
81	0xbd955c01	-0.07292939
82	0x3bb9b991	0.005667873
83	0x3ae79b17	0.0017670122
84	0x3e6deeff	0.23235701
85	0x3a8f3230	0.0010924991
86	0xbd9f4e25	-0.07778577
87	0x3d242e1c	0.040083036
88	0xb9ba4313	-0.0003552666
89	0x3e46f9a7	0.19431172
90	0xbdef50f9	-0.11685366
91	0x3d9775e1	0.073955305
92	0x3d7cecae	0.061749153
93	0xbe814bad	-0.2525305
94	0x3d178875	0.03699537
95	0xbe451965	-0.19247968
96	0xbe94033f	-0.28908727
97	0x3d0a3683	0.033743393
98	0xbe0f915c	-0.14020294
99	0x3c4f8b45	0.012667482
100	0xbc89d01c	-0.016822867
101	0xbd461303	-0.048357975
102	0x3e109a85	0.14121445
103	0x3cc0528e	0.023476865
104	0x3d463c21	0.048397187
105	0x3cd2cc02	0.025732044
106	0xbdade04d	-0.084900476
107	0x3dd934ad	0.1060575
108	0x3dcd4d0d	0.10024462
109	0x3d281fb5	0.041045863
110	0xbe170823	-0.14749198
111	0xbe64e54b	-0.22353093
112	0x3e158bf9	0.14604177
113	0xbe403159	-0.18768825
114	0x3e3d750d	0.18501683
115	0x3e399d70	0.18126464
116	0x3db81ee2	0.089902654
117	0xbdc6df5f	-0.097105734
118	0xbd72d721	-0.059287194
119	0xbb69cd7a	-0.0035675452
120	0x3e12a571	0.14320923
121	0x3d8fce3a	0.070217565
122	0xbd4e83be	-0.050418608
123	0xbe7e7a3f	-0.2485132
124	0xbd313e94	-0.04327257
125	0xbd9ab4d5	-0.07554022
126	0xbe1be394	-0.15223533
127	0x3be66ea9	0.0070322347
128	0xbdb046f2	-0.08607282
129	0x3cb39458	0.021921322
130	0x3ba7d2c3	0.0051215603
131	0x3e0bd3b5	0.13654979
132	0x3d0e9fcb	0.03482036
133	0x3d69cb39	0.057078574
134	0xbd8397c5	-0.06425432
135	0x3d958e97	0.073025875
136	0x3dc0ddf2	0.09417333
137	0xbdcdc06b	-0.100464664
138	0xbd263bb5	-0.040584285
139	0xbd4c2573	-0.0498404
140	0xbe77413c	-0.24145979
141	0x3e334b3b	0.17509167
142	0x3e6652bb	0.22492497
143	0x3e373a5b	0.17893355
144	0x3d04dc8b	0.03243689
145	0x3d3de651	0.046362225
146	0x3a9ffcff	0.0012206136
147	0xbe8e920e	-0.27845806
148	0xbdf751f3	-0.120761774
149	0xbd82190e	-0.06352435
150	0xbd34fa9c	-0.044184312
151	0x3df45ac8	0.11931378
152	0xbe1ba2d4	-0.15198833
153	0xbd9d0951	-0.076677926
154	0x3e1637b1	0.14669682
155	0x3e295d5b	0.16539519
156	0x3e17ab92	0.14811543
157	0xbe09960d	-0.13436146
158	0xbd2e12d1	-0.042498413
159	0xbdb8b7f6	-0.09019463
160	0xbd230c49	-0.039806638
161	0xbd4125e2	-0.04715527
162	0xbd0a4d51	-0.03376514
163	0x3cfa0017	0.030517621
164	0xbe5f6610	-0.21816278
165	0xbdb13955	-0.08653513
166	0xbd806fed	-0.06271348
167	0xbe2921d7	-0.16516815
168	0x3dc3ff48	0.095701754
169	0x3e2b8ac8	0.1675216
170	0x3e865c61	0.26242355
171	0x3e64535c	0.22297424
172	0xbe6808cc	-0.22659606
173	0x3d379866	0.044823073
174	0xbde85c1c	-0.113456935
175	0xbd90fa1e	-0.07078956
176	0x3dbe7c1f	0.09301018
177	0xbd9c4744	-0.0763078
178	0x3d3825eb	0.044958036
179	0xbe508623	-0.20363669
180	0xbc317d4a	-0.010833094
181	0x3dcae18b	0.099063
182	0x3dc07a07	0.09398275
183	0x3e185103	0.14874654
184	0xbdf0f1a8	-0.11764842
185	0x3cf1ba16	0.029507678
186	0x3d807fab	0.06274351
187	0xbdec9186	-0.11551194
188	0xbdcec8df	-0.10096907
189	0x3e858b99	0.26083067
190	0x3e2b78b9	0.16745271
191	0x3dafd2d0	0.08585131
192	0x3d505ca7	0.05086961
193	0xbe21c395	-0.15797265
194	0xbdc04f88	-0.093901694
195	0x3dd85143	0.105623744
196	0xbc08f444	-0.008359019
197	0x3e442505	0.19154747
198	0xbe447515	-0.19185288
199	0x3dfa923d	0.12234924
200	0x3dea9e65	0.114559926
201	0xbe43db28	-0.1912657
202	0xbde6fe65	-0.11278991
203	0xbe5aa522	-0.21352056
204	0x3d2b0c0b	0.041759532
205	0x3d5538df	0.05205619
206	0x3e185c74	0.14879018
207	0xbd838ba9	-0.064231224
208	0x3db6e0ff	0.08929633
209	0x3ddfa7dd	0.10920689
210	0x3d8acd3e	0.06777428
211	0xbe0b062b	-0.13576572
212	0x3e04b52b	0.12959735
213	0xba654cc2	-0.00087470945
214	0xbe05cbd8	-0.13066041
215	0xbc5d319b	-0.013500596
216	0x3e45a072	0.19299486
217	0xbe15f0c2	-0.14642623
218	0xbd5e01e0	-0.054201007
219	0x3e1e759e	0.15474555
220	0x3d6ea881	0.058266167
221	0x3dcf24df	0.101144545
222	0x3dab68b7	0.08369582
223	0x38f727c3	0.00011785284
224	0xbe3a54dc	-0.18196434
225	0xbd9912f5	-0.07474319
226	0x3dceb83a	0.10093732
227	0xba7efc75	-0.000972695
228	0xba2e79e3	-0.0006655736
229	0x3e6d2d78	0.23161876
230	0x3cabacb3	0.020956373
231	0xbe69d347	-0.22834502
232	0x3e146d02	0.14494708
233	0xbe5b2962	-0.21402505
234	0xbdd76807	-0.105178885
235	0xbe01d2de	-0.12678096
236	0xbc71695c	-0.014734592
237	0x3d731c95	0.05935343
238	0x3e1395b0	0.1441257
239	0xbd089b28	-0.033351094
240	0xbe2f8551	-0.171407
241	0x3e252bbc	0.16129965
242	0xbdd761cc	-0.105167
243	0x3d4d6265	0.050142664
244	0xbc801d2e	-0.015638914
245	0xbca957e6	-0.020671796
246	0xbe48223c	-0.1954431
247	0xbda3aad1	-0.07991565
248	0xbe0619b0	-0.13095737
249	0xbe78e585	-0.24306305
250	0xbe4d8d45	-0.20073421
251	0x3d8e425d	0.069462515
252	0xbe5eb25f	-0.2174773
253	0xbdaafac7	-0.08348613
254	0x3db48d05	0.0881596
255	0x3e6936f4	0.22774869

conv_in.1.weight f4 [64]
0	0x3f88ff0d	1.0702835
1	0x3f5dffd5	0.86718494
2	0x3f221113	0.63307303
3	0x3f4bddfe	0.7963561
4	0x3f7ce15b	0.98781365
5	0x3f726f13	0.94700736
6	0x3f7ff78b	0.99987096
7	0x3f7a52c4	0.9778254
8	0x3f5a6ff2	0.85327065
9	0x3f82d07b	1.0219873
10	0x3f548d5f	0.83028215
11	0x3f6deaf5	0.9293664
12	0x3f70ddcd	0.9408844
13	0x3f6fbe8a	0.93650115
14	0x3f6070b9	0.87672
15	0x3f71a680	0.94394684
16	0x3f5c44c4	0.8604243
17	0x3f728844	0.94739175
18	0x3f695a2b	0.9115321
19	0x3f455694	0.7708523
20	0x3f446f92	0.7673274
21	0x3f2c07b9	0.67199284
22	0x3f84cedf	1.0375632
23	0x3f740266	0.9531616
24	0x3f48e577	0.78475136
25	0x3f3b7ffa	0.7324215
26	0x3f69271d	0.9107531
27	0x3f358879	0.70911366
28	0x3f778895	0.9669278
29	0x3f8665c1	1.0499803
30	0x3f47b7ad	0.7801464
31	0x3f6d0b39	0.9259525
32	0x3f6f4ca3	0.93476313
33	0x3f72775b	0.9471337
34	0x3f6c3a5c	0.9227655
35	0x3f55054d	0.83211213
36	0x3f8115ae	1.0084741
37	0x3f50bbf3	0.8153679
38	0x3f606d53	0.87666816
39	0x3f5876ce	0.8455628
40	0x3f832bf5	1.024779
41	0x3f653d3b	0.89546555
42	0x3f7faf1a	0.9987656
43	0x3f321967	0.6957001
44	0x3f6c73ce	0.92364204
45	0x3f61d4c8	0.88215303
46	0x3f72011b	0.94532937
47	0x3f7c16bf	0.9847221
48	0x3f707428	0.9392724
49	0x3f854837	1.0412663
50	0x3f8aa02a	1.0830128
51	0x3f6232f9	0.8835903
52	0x3f6d9e94	0.92820096
53	0x3f72dfb1	0.94872576
54	0x3f3569e0	0.7086468
55	0x3f470f7a	0.7775799
56	0x3f78378e	0.9695977
57	0x3f53db7b	0.82756776
58	0x3f622bf1	0.883483
59	0x3f82b1bc	1.021049
60	0x3f7c5b1f	0.9857654
61	0x3f7962c7	0.9741635
62	0x3f42e5fc	0.7613218
63	0x3f5b2384	0.8560107

conv_in.1.bias f4 [64]
0	0xbe7ffb73	-0.24998264
1	0xbe93f2e3	-0.28896245
2	0xbec6962f	-0.38786456
3	0xbe9eb014	-0.30993712
4	0xbe117aab	-0.1420695
5	0xbe5f01a9	-0.21777977
6	0xbe2d59f5	-0.16928847
7	0xbe064fc9	-0.13116373
8	0xbe6a34af	-0.2287166
9	0xbe1dd8f9	-0.154148
10	0xbe900d4b	-0.28135142
11	0xbe58b954	-0.21164447
12	0xbe7be9c9	-0.246009
13	0xbe573685	-0.21016891
14	0xbe672505	-0.22572716
15	0xbe532f9c	-0.2062363
16	0xbea011ed	-0.31263676
17	0xbe2c9d3b	-0.16856854
18	0xbdef2b98	-0.11678237
19	0xbeadd20f	-0.33949324
20	0xbea7d345	-0.32778373
21	0xbebae168	-0.36500096
22	0xbe18a8d5	-0.14908154
23	0xbe0088cd	-0.12552185
24	0xbe915f65	-0.28393093
25	0xbeb0fa5f	-0.34566018
26	0xbe34f7b6	-0.17672619
27	0xbec0be96	-0.37645406
28	0xbe982e6e	-0.29722923
29	0xbe066394	-0.13123924
30	0xbe9b190b	-0.30292544
31	0xbe30df94	-0.17272788
32	0xbe919070	-0.2843051
33	0xbe7e1aea	-0.24814954
34	0xbe75b241	-0.2399378
35	0xbe7337af	-0.2375171
36	0xbe24186f	-0.16024946
37	0xbe8e5a0d	-0.27803078
38	0xbea16b8b	-0.3152736
39	0xbebeaf3a	-0.37243062
40	0xbe3dbfea	-0.1853024
41	0xbe8b082a	-0.27154666
42	0xbe882d45	-0.26597038
43	0xbeab496b	-0.3345445
44	0xbe8d6baa	-0.27621204
45	0xbe917010	-0.2840581
46	0xbe5ad8b6	-0.21371731
47	0xbde47091	-0.11154283
48	0xbe830f8e	-0.25597805
49	0xbe58bbab	-0.2116534
50	0xbe7a42bd	-0.24439521
51	0xbe879d2c	-0.264871
52	0xbe76ef02	-0.24114612
53	0xbe3cea61	-0.18448783
54	0xbec144b1	-0.3774772
55	0xbebab838	-0.36468673
56	0xbda78c79	-0.0818109
57	0xbe67bdbf	-0.22630976
58	0xbea6f79d	-0.3261079
59	0xbdab2324	-0.08356312
60	0xbe540eae	-0.20708725
61	0xbe86cdfd	-0.26329032
62	0xbeb66188	-0.35621285
63	0xbe747959	-0.23874415

conv_in.1.running_mean f4 [64]
0	0xbcaa4819	-0.020786332
1	0x3d2acefd	0.041701306
2	0x3e494455	0.19654973
3	0xbd730449	-0.05933026
4	0xbbb0bf6f	-0.0053939144
5	0xbcb04004	-0.0215149
6	0xbd1f382c	-0.03887193
7	0x3c9c7199	0.019097136
8	0x3d54c82c	0.05194871
9	0xbd87ea9b	-0.06636544
10	0xbd2340b8	-0.039856642
11	0x3d9b568b	0.07584866
12	0xbca30e60	-0.019904315
13	0xbdb39e60	-0.08770442
14	0xbdb1410b	-0.08654984
15	0xbce9e06a	-0.028549392
16	0xbdb35cd5	-0.08757941
17	0xbd10ca63	-0.03534926
18	0xbd26b82e	-0.04070299
19	0xbdcdde74	-0.10052195
20	0x3bbcfbd6	0.005767326
21	0x3d205b27	0.03914943
22	0xbd73be63	-0.05950774
23	0xbc39ca21	-0.011339695
24	0xbd39171c	-0.045188054
25	0xbd29c0d4	-0.04144366
26	0xbdb96299	-0.09052009
27	0xbcb029d4	-0.02150432
28	0xbd2ddb40	-0.04244542
29	0x3793b70b	1.7609002e-05
30	0xbc8dbd27	-0.017302109
31	0x3d5966a8	0.053076416
32	0xbd0084cf	-0.031376656
33	0x3cb86cb0	0.022512764
34	0xbddcc03a	-0.10778852
35	0x3c1a3d45	0.009414022
36	0xbd80da5e	-0.0629165
37	0x3d6e2e6a	0.058149733
38	0x3d96f273	0.07370462
39	0x3ce11dd3	0.027480042
40	0x3ce9c378	0.02853559
41	0xbd0661fb	-0.032808285
42	0x3ca52aab	0.020161947
43	0xbd06b6d0	-0.032889187
44	0xbae2b6b4	-0.0017296881
45	0x3da9c127	0.08288794
46	0xbd40cf0f	-0.047072466
47	0x3c3eceef	0.0116460165
48	0xbce68430	-0.028139204
49	0x3d0d5cf7	0.034512486
50	0xb9ea8f73	-0.00044738836
51	0x3d460b34	0.048350528
52	0xbcfa47e3	-0.030551856
53	0x3bae05f1	0.005310767
54	0x3ce21e5e	0.02760237
55	0x3be80f5d	0.0070819096
56	0xbe32b4df	-0.1745181
57	0xbe17bbf0	-0.14817786
58	0xbd126a2b	-0.03574578
59	0x3c38b48e	0.011273516
60	0xbd44aaf2	-0.04801459
61	0x3c8a92db	0.01691573
62	0x3ddea365	0.10871009
63	0xbe059269	-0.13044132

conv_in.1.running_var f4 [64]
0	0x3cee6027	0.029098583
1	0x3d620698	0.05518207
2	0x3e2a0d58	0.16606653
3	0x3d895597	0.06705778
4	0x3d79f35d	0.061023105
5	0x3d3e5872	0.046471067
6	0x3d75d93d	0.060021628
7	0x3d10f5f0	0.035390794
8	0x3d591517	0.05299863
9	0x3d9bef40	0.07613993
10	0x3d6765f9	0.056493733
11	0x3d9c1248	0.07620674
12	0x3d48a5f2	0.048986383
13	0x3d9a1bae	0.07524811
14	0x3d8e0111	0.06933797
15	0x3d651ab2	0.05593366
16	0x3db7f819	0.08982868
17	0x3d6d8b27	0.057994034
18	0x3d44f2dd	0.048083175
19	0x3ddd36f5	0.10801498
20	0x3d8c86a6	0.0686162
21	0x3d7f2d9a	0.06229935
22	0x3d95b02f	0.07308995
23	0x3d8b3d3e	0.067987904
24	0x3dbb0a82	0.091328636
25	0x3dce63c9	0.10077626
26	0x3d806960	0.06270099
27	0x3dcd8487	0.10035043
28	0x3d61b7ba	0.055106856
29	0x3d458aba	0.048228003
30	0x3d805af8	0.06267351
31	0x3d204f0e	0.039137892
32	0x3d7385ff	0.05945396
33	0x3d3aa82b	0.045570534
34	0x3d2a3118	0.041550726
35	0x3d8d206e	0.06890951
36	0x3dab5196	0.08365171
37	0x3debdeba	0.11517091
38	0x3dab1f29	0.08355553
39	0x3d7c9a4a	0.06167058
40	0x3d77ef35	0.06053086
41	0x3d2781ff	0.04089546
42	0x3d348906	0.04407599
43	0x3d8c281f	0.0684359
44	0x3d4bb163	0.049729716
45	0x3d85f8ea	0.06541617
46	0x3d8ee9c6	0.069781825
47	0x3daa2d62	0.08309437
48	0x3d31c86a	0.04340402
49	0x3d5032bd	0.050829638
50	0x3cee1169	0.029061036
51	0x3dc5582b	0.09635957
52	0x3d26058d	0.040532637
53	0x3d5c4818	0.05377969
54	0x3e16af53	0.14715318
55	0x3d65a101	0.05606175
56	0x3da6d9d4	0.08147016
57	0x3dae607f	0.08514499
58	0x3d6c638f	0.057712134
59	0x3d20219b	0.03909455
60	0x3d8ed94b	0.06975039
61	0x3d2d32d9	0.04228482
62	0x3dce1384	0.10062316
63	0x3d84dceb	0.06487449

res_blocks.0.conv1.weight f4 [64, 64, 3, 3]
0	0xbb9cd946	-0.004786643
1	0x3a278ebf	0.0006391815
2	0xbd010cf0	-0.03150648
3	0x3d51bb00	0.051203728
4	0x3dad4515	0.08460442
5	0xbddfd76b	-0.109297596
6	0xbd6e2469	-0.058140192
7	0x3c9d8a5a	0.01923101
8	0x3d2435d1	0.040090386
9	0x3da5edde	0.0810201
10	0xbb22ef33	-0.0024861812
11	0xba9c61c7	-0.0011930995
12	0x3e313f4b	0.173093
13	0xbcc58821	-0.024112763
14	0x3c349fca	0.011024425
15	0xbccb9951	-0.02485338
16	0x3d9bc971	0.07606781
17	0x3c909cc8	0.017652884
18	0x3d453310	0.0481444
19	0x3ce0575e	0.02738541
20	0x3b282e80	0.0025662482
21	0x3d4d590b	0.050133746
22	0xbd3d1abe	-0.04616808
23	0xbd85e5ff	-0.06538009
24	0x3d06fd6a	0.03295652
25	0x3d7d2d48	0.06181076
26	0xbd88b3b4	-0.06674901
27	0x3c8c863b	0.01715385
28	0x3ca547b2	0.020175789
29	0x3d63e7b1	0.05564088
30	0xbca61413	-0.020273244
31	0xbd437d0c	-0.047726676
32	0x3e102b69	0.1407906
33	0xbbbdfbca	-0.005797838
34	0xbcae1191	-0.02124861
35	0x3c5fc93f	0.013658821
36	0x3df807ba	0.12110849
37	0xbc691f08	-0.01422859
38	0x3b425d33	0.0029657602
39	0x3d30edf1	0.04319567
40	0xbe543583	-0.20723538
41	0xbda4c276	-0.08044903
42	0xbdb8dea2	-0.09026839
43	0xbdbc13b9	-0.09183449
44	0xbbfde3ff	-0.0077481265
45	0xbc257d4c	-0.010100674
46	0x3cec38cd	0.028835678
47	0xbbe9de7c	-0.007137118
48	0xb988933b	-0.00026049637
49	0x3c0a6e76	0.0084491875
50	0xbd43f353	-0.047839474
51	0xbd67cd06	-0.05659201
52	0x3af4be76	0.0018672484
53	0x3ca57b1f	0.02020031
54	0xbd94f9fd	-0.07274244
55	0x3d5db626	0.05412879
56	0xbd083ecf	-0.033263024
57	0x3c43c5ff	0.011949061
58	0xbcb82886	-0.02248026
59	0xbcd8fbca	-0.02648725
60	0xbdbe2d76	-0.09286015
61	0x3d2abcea	0.04168407
62	0xbcaa3a48	-0.020779744
63	0x3e02c981	0.1277218
64	0xbc2cdae8	-0.010550238
65	0xbd9ba054	-0.075989395
66	0xbd880f06	-0.066434905
67	0xbc6e7404	-0.0145540275
68	0xbda21252	-0.079136506
69	0x3d38410b	0.044983905
70	0x3cd2ef4e	0.025748875
71	0xbd7045d0	-0.05866033
72	0x3d87bbfd	0.06627653
73	0x3b58d44b	0.003308552
74	0xbd984ea1	-0.07436872
75	0xbd927e09	-0.071529455
76	0xbd6d435c	-0.057925567
77	0xbd4b23e3	-0.04959477
78	0xbd0ea39d	-0.034824003
79	0xbd4d4abc	-0.0501201
80	0x3abd37ce	0.0014436187
81	0x3cede9e6	0.029042196
82	0xbcdc3b00	-0.026883602
83	0x3d11dd6c	0.035611555
84	0xbd8bd27a	-0.068272546
85	0xbc805c3c	-0.01566898
86	0x3cc27e01	0.023741724
87	0x3e0a4129	0.13501419
88	0x3dc1300d	0.09432993
89	0xbc0d1d41	-0.008612932
90	0x3d9974a9	0.07492954
91	0x3d4b3bad	0.049617458
92	0xba3cf281	-0.0007207767
93	0xbca3e6d7	-0.020007534
94	0xbcb507df	-0.02209848
95	0xbd60f343	-0.054919492
96	0xbdb391a4	-0.08768013
97	0x39e9311a	0.00044477807
98	0xbce8674f	-0.028369574
99	0xbd323376	-0.04350611
100	0x3ba6ff3b	0.005096344
101	0xbd9094f1	-0.07059658
102	0x3d0047c0	0.031318426
103	0xbd332bc8	-0.043742925
104	0x3d960649	0.073254175
105	0x3d7d0e10	0.06178099
106	0xbd78901b	-0.060684305
107	0x3cf40ff1	0.029792758
108	0x3dd0375f	0.10166811
109	0x3d08a20d	0.03335767
110	0x3dcb9d27	0.09942084
111	0x3d9a5240	0.07535219
112	0xbdcdeb60	-0.1005466
113	0xbd7afd2b	-0.061276596
114	0xbd565971	-0.05233139
115	0xbdd5de29	-0.10442764
116	0xbc84cce6	-0.016210984
117	0x3ccc8b1e	0.02496868
118	0xbc72b3a7	-0.01481334
119	0xbd86c9f7	-0.065814905
120	0x3c84a5a2	0.016192261
121	0x3de7cba4	0.11318138
122	0xbcb5d7b9	-0.022197591
123	0xbdca001d	-0.09863303
124	0xbd131388	-0.0359073
125	0xbe03fbe7	-0.12889062
126	0x3c852914	0.01625494
127	0xbcb39cc9	-0.021925347
128	0xbc6cdecb	-0.014457415
129	0xbd094e8b	-0.03352217
130	0xbd98277e	-0.074294075
131	0xbd1492c0	-0.036272764
132	0xbb93fa77	-0.0045159417
133	0xbdeb6e9f	-0.11495709
134	0xbcede2c7	-0.0290388
135	0x3e0070bf	0.12543009
136	0x3cd96275	0.026536206
137	0x3d83aceb	0.06429466
138	0xbe0ef5a8	-0.13960898
139	0xbdcc0782	-0.099623695
140	0x3d115375	0.03547998
141	0x3d6c3b26	0.057673596
142	0x3cc104fa	0.023561943
143	0xbcb120c9	-0.021622078
144	0x3db44d76	0.08803837
145	0xbce6848f	-0.02813938
146	0xbe05e4c4	-0.13075548
147	0x3e0e6787	0.1390668
148	0xbdccb364	-0.099951535
149	0xbe097603	-0.13423924
150	0x3d766d09	0.060162578
151	0xbdd18515	-0.102304615
152	0xbd1b8ab1	-0.037974063
153	0x3b9091ca	0.0044119107
154	0xbd3b5643	-0.045736562
155	0xbc92fb14	-0.017941989
156	0x3d1cefcc	0.038314626
157	0xbd8fa2e5	-0.070134915
158	0x3dcc3f32	0.09972991
159	0xbdb28701	-0.08717156
160	0xbdb03b6b	-0.08605083
161	0x3dec6087	0.11541849
162	0xbd5c47f7	-0.05377957
163	0x3bfbb4e0	0.007681474
164	0x3d3c0d1f	0.04591095
165	0xbc8ef149	-0.017449038
166	0xbdb16fe8	-0.086639225
167	0x3c10b593	0.008832353
168	0xbe249f0e	-0.160763
169	0x3d2112cb	0.039324563
170	0xbd2f2db1	-0.042768184
171	0x3ca080ca	0.019592661
172	0xbd56a0af	-0.052399334
173	0xbccf44a0	-0.025301278
174	0x3abde4b7	0.0014487718
175	0x3d2089e3	0.039194
176	0x3d742669	0.059606943
177	0xbcadb67e	-0.021205183
178	0xbc45b0f0	-0.012066111
179	0x3e186d38	0.14885414
180	0x3beddbb0	0.007258855
181	0x3c01a524	0.007912908
182	0x3cbe4a5f	0.023228822
183	0xbd915897	-0.07096975
184	0x3d239b8c	0.039943263
185	0xbc915e1f	-0.017745076
186	0xbc08df41	-0.008354009
187	0xbdbc640a	-0.091987684
188	0x3d13c60b	0.03607754
189	0xbd038f93	-0.032119345
190	0x3b324a9e	0.002720512
191	0x3d1c09d4	0.03809531
192	0xbbc84a2c	-0.0061123576
193	0xbcafdbb0	-0.02146706
194	0x3cde0ff3	0.027107215
195	0x3c3a3d59	0.0113671655
196	0x3d58e2ef	0.052950796
197	0xbd39f17c	-0.045396313
198	0x3debb831	0.11509741
199	0x3d83f27d	0.06442735
200	0xbd5a3523	-0.05327333
201	0xbc507b07	-0.0127246445
202	0xbcd9448a	-0.02652194
203	0xbdae44bf	-0.08509206
204	0x3d0ac63d	0.03388046
205	0xbdfd51d3	-0.12369122
206	0x3cca6bb1	0.024709554
207	0x3dd4390d	0.10362444
208	0xbdacbb0b	-0.08434113
209	0xbbd2a68c	-0.0064285453
210	0xbd397357	-0.045276012
211	0xbcda8b67	-0.0266778
212	0x3cac4619	0.021029519
213	0xbd563fd6	-0.052306972
214	0x3d72f30b	0.059313815
215	0x3bc83860	0.006110236
216	0xbd0fda09	-0.035120044
217	0xbb82ca3a	-0.0039913924
218	0xbd4eae8f	-0.05045944
219	0xbd96eef7	-0.07369798
220	0x3d3d2830	0.046180904
221	0xbd2085bf	-0.03919005
222	0x3cd4f2c8	0.025994673
223	0x3d256abf	0.040385004
224	0x3c4ff566	0.012692785
225	0x3d749e37	0.059721198
226	0x3d09fc14	0.033687666
227	0x3d136fdc	0.03599535
228	0x3daad638	0.0834164
229	0xbc8ad89c	-0.01694899
230	0x3d422d05	0.047406215
231	0x3c987eec	0.018615209
232	0x3b93be9b	0.004508806
233	0xbe2b0a9f	-0.1670327
234	0x3bf3c063	0.007438706
235	0xbbd4e028	-0.006496448
236	0x3c43e771	0.011957035
237	0x3d697a0d	0.057001162
238	0x3c945825	0.018108437
239	0xbcd525b9	-0.026018964
240	0x3d13db26	0.036097668
241	0x3cca52a2	0.024697606
242	0x3d28f5ef	0.041250166
243	0xbcad891f	-0.021183548
244	0xbc90d924	-0.017681666
245	0xbd8b02de	-0.06787656
246	0xbe1b841f	-0.15187119
247	0x3d80ebab	0.0629495
248	0xbc890d56	-0.016729992
249	0xbd9c8fd6	-0.07644622
250	0xbcc1e9f9	-0.023671137
251	0x3cd7b06b	0.02632924
252	0x3d781e9b	0.060576063
253	0x3c81728a	0.015801687
254	0xbc2b5658	-0.010457598
255	0xbb194cc0	-0.0023391694

res_blocks.0.bn1.weight f4 [64]
0	0x3f7f9928	0.9984307
1	0x3f7d5346	0.9895519
2	0x3f72a76e	0.9478673
3	0x3f83e5a6	1.0304458
4	0x3f54a2b0	0.8306074
5	0x3f7b1080	0.9807205
6	0x3f7be78a	0.98400176
7	0x3f77a4d6	0.96735895
8	0x3f88c086	1.0683753
9	0x3f78a8b2	0.9713241
10	0x3f66e246	0.90189016
11	0x3f74d0b4	0.95630956
12	0x3f84aa17	1.0364407
13	0x3f799edd	0.9750803
14	0x3f753a77	0.95792335
15	0x3f76d01a	0.9641129
16	0x3f85f0ce	1.0464113
17	0x3f6cfc54	0.9257252
18	0x3f7be1ef	0.9839162
19	0x3f63d742	0.8900033
20	0x3f7dc70d	0.9913185
21	0x3f7f3840	0.99695206
22	0x3f7511be	0.957302
23	0x3f644ff3	0.8918449
24	0x3f815132	1.0102904
25	0x3f5f4e8e	0.8722924
26	0x3f74c1cd	0.95608217
27	0x3f805988	1.0027323
28	0x3f828ac9	1.0198604
29	0x3f71c3a8	0.9443917
30	0x3f770f76	0.96507967
31	0x3f851f7f	1.0400237
32	0x3f674a8f	0.9034814
33	0x3f811b11	1.0086385
34	0x3f87a1cd	1.0596253
35	0x3f87280e	1.0559099
36	0x3f838d62	1.0277522
37	0x3f8ddd9c	1.1083255
38	0x3f82eb50	1.0228062
39	0x3f80271b	1.0011934
40	0x3f64763c	0.8924291
41	0x3f668e4f	0.90060896
42	0x3f876d45	1.0580221
43	0x3f78f187	0.9724354
44	0x3f748893	0.95520896
45	0x3f804c9b	1.0023378
46	0x3f7daf4e	0.9909562
47	0x3f65b047	0.897221
48	0x3f8685f0	1.0509624
49	0x3f74dfb7	0.9565386
50	0x3f767b07	0.96281475
51	0x3f6cf91a	0.925676
52	0x3f7d98b9	0.9906116
53	0x3f8217f4	1.016356
54	0x3f80262b	1.0011648
55	0x3f61faad	0.88273126
56	0x3f809185	1.0044409
57	0x3f7aca19	0.97964627
58	0x3f84de4c	1.038034
59	0x3f610406	0.87896764
60	0x3f8310b7	1.0239476
61	0x3f82304a	1.0170987
62	0x3f8103ac	1.0079246
63	0x3f6e07a2	0.92980397

res_blocks.0.bn1.bias f4 [64]
0	0xbe3ab519	-0.18233146
1	0xbe346d85	-0.17619903
2	0xbe8b02d6	-0.271506
3	0xbe5105a1	-0.20412304
4	0xbe72e082	-0.23718455
5	0xbe3e5c0c	-0.185898
6	0xbe556eb9	-0.20843019
7	0xbe62e7fc	-0.22158808
8	0xbe2fa8bd	-0.17154212
9	0xbe46c0f3	-0.19409542
10	0xbe93b608	-0.28849816
11	0xbe5caa34	-0.21549302
12	0xbe446948	-0.19180787
13	0xbe34b87a	-0.17648497
14	0xbe2f3d16	-0.17113146
15	0xbe903907	-0.28168508
16	0xbe413419	-0.1886753
17	0xbe664715	-0.22488053
18	0xbe541605	-0.20711525
19	0xbe8814e2	-0.26578432
20	0xbe52b4c1	-0.20576765
21	0xbe94e2fd	-0.29079428
22	0xbe511878	-0.2041949
23	0xbe623a48	-0.22092545
24	0xbe533f03	-0.20629506
25	0xbe5ce191	-0.21570422
26	0xbe825acc	-0.25459898
27	0xbe7fd2be	-0.24982736
28	0xbe5d03d8	-0.21583498
29	0xbe59b094	-0.21258765
30	0xbe2bdab1	-0.16782643
31	0xbe31007d	-0.17285343
32	0xbe4e17aa	-0.20126215
33	0xbe79f516	-0.24409899
34	0xbe1ad9c1	-0.15122129
35	0xbdc9d8b3	-0.09855785
36	0xbdc8c995	-0.09804074
37	0xbe2eb423	-0.17060904
38	0xbe7eeee8	-0.24895823
39	0xbe701feb	-0.23449676
40	0xbe6bd82a	-0.23031679
41	0xbe5520d5	-0.20813306
42	0xbe68f5bf	-0.22749995
43	0xbe5d81fa	-0.21631613
44	0xbe8c2d27	-0.27378199
45	0xbe58b114	-0.211613
46	0xbe706d8c	-0.23479289
47	0xbe7a9b63	-0.24473338
48	0xbe843c7f	-0.25827405
49	0xbe70731f	-0.23481415
50	0xbe691a50	-0.22763944
51	0xbe51ce3b	-0.20488827
52	0xbe64c329	-0.22340073
53	0xbe6c4a82	-0.23075297
54	0xbe12af11	-0.14324595
55	0xbe9bd97a	-0.3043936
56	0xbe41ad18	-0.18913686
57	0xbe6aea8f	-0.2294104
58	0xbe6faef5	-0.23406585
59	0xbe9e2579	-0.30887964
60	0xbe4363c6	-0.1908103
61	0xbe0e4bb5	-0.13896067
62	0xbe227951	-0.15866591
63	0xbe543380	-0.2072277

res_blocks.0.bn1.running_mean f4 [64]
0	0xbf3b1a5e	-0.7308711
1	0xbf6f4937	-0.9347109
2	0xbf5095d3	-0.81478614
3	0xbe6fe660	-0.23427725
4	0xbea40b23	-0.32039747
5	0xbea9beb9	-0.33153322
6	0xbd11e645	-0.035619993
7	0xbe8abae5	-0.27095714
8	0xbf6c5929	-0.9232355
9	0xbeb35d69	-0.35032204
10	0xbe8e2689	-0.27763775
11	0xbee66eb0	-0.45006323
12	0xbe5ae565	-0.2137657
13	0xbecfa0ae	-0.40552276
14	0xbda6939e	-0.081336245
15	0xbf1b1a75	-0.60587245
16	0xbf1c413a	-0.6103703
17	0xbec55330	-0.3854003
18	0xbf16fb3a	-0.5897709
19	0xbf562e82	-0.83664715
20	0xbf3c88ab	-0.7364604
21	0xbf174e0e	-0.59103477
22	0xbf28d04f	-0.65942854
23	0xbf31c20e	-0.6943673
24	0xbf7f2963	-0.99672526
25	0x3d9f743c	0.07785842
26	0xbecb5f83	-0.39721307
27	0xbe853fab	-0.26025137
28	0xbf25e54a	-0.6480299
29	0xbef44760	-0.47710705
30	0xbe271a3b	-0.163186
31	0xbe14270e	-0.14468023
32	0xbe43a584	-0.19106108
33	0xbf2ccb00	-0.67497253
34	0xbf159fa7	-0.58446735
35	0xbf0161aa	-0.5053965
36	0xbfaee0e9	-1.3662387
37	0xbe943a4f	-0.28950736
38	0xbdd9508b	-0.106110655
39	0xbf709546	-0.93977773
40	0xbe9a91a8	-0.30189252
41	0xbf1cd99b	-0.6126954
42	0xbeafe155	-0.34351602
43	0xbf37c903	-0.71791095
44	0x3c8db033	0.017295932
45	0xbe96daa0	-0.29463673
46	0xbf5fa612	-0.8736278
47	0xbf419084	-0.7561114
48	0xbf161819	-0.5863052
49	0xbf15abe1	-0.5846539
50	0xbf7f021e	-0.99612606
51	0xbee09de3	-0.43870458
52	0xbf1005c8	-0.5625882
53	0xbf7fe677	-0.99961036
54	0xbf31646d	-0.6929386
55	0xbf844641	-1.033394
56	0xbf08e243	-0.5347025
57	0xbd986ed3	-0.07443013
58	0xbf24567e	-0.64194477
59	0xbf1727e8	-0.5904527
60	0xbfb2c323	-1.3965801
61	0xbe8f914e	-0.28040546
62	0xbf176746	-0.5914196
63	0xbe0be499	-0.13661422

res_blocks.0.bn1.running_var f4 [64]
0	0x3f658f75	0.89672023
1	0x3f8f4945	1.1194235
2	0x3f793e00	0.9736023
3	0x3f82935e	1.0201223
4	0x3f5b44f6	0.856521
5	0x3f460d54	0.7736409
6	0x3f5e965b	0.86948174
7	0x3f6f100a	0.9338385
8	0x3f6021d6	0.8755163
9	0x3f5c495d	0.86049443
10	0x3f8feb9b	1.1243776
11	0x3f62de88	0.88620806
12	0x3f43ed57	0.76534027
13	0x3fa882c8	1.3164911
14	0x3f50e2f2	0.8159629
15	0x3f9d3f79	1.2284995
16	0x3f3e1fba	0.7426716
17	0x3f6c0285	0.92191344
18	0x3f899c56	1.0750835
19	0x3f97aacb	1.1848997
20	0x3f45d671	0.77280337
21	0x3f48d8b2	0.7845565
22	0x3f95a61f	1.1691321
23	0x3f8f259a	1.118335
24	0x3f99136a	1.195905
25	0x3f613e33	0.87985533
26	0x3f786f6b	0.9704501
27	0x3f4fb6f8	0.81138563
28	0x3f63ab62	0.88933384
29	0x3f8b8b1b	1.0901827
30	0x3f95a832	1.1691954
31	0x3f311c0d	0.6918343
32	0x3f74e82f	0.95666784
33	0x3f733292	0.9499904
34	0x3f81f819	1.0153838
35	0x3f688f39	0.9084354
36	0x3fa9df50	1.3271275
37	0x3f299eb9	0.66257817
38	0x3f5c4b5a	0.8605248
39	0x3f6e3bdf	0.93060106
40	0x3f786d46	0.9704174
41	0x3fc3c3ed	1.5294167
42	0x3f687069	0.90796524
43	0x3fa77131	1.3081418
44	0x3f6a36c9	0.91489846
45	0x3f92cfe0	1.1469688
46	0x3f76e684	0.9644549
47	0x3f920772	1.1408522
48	0x3f341e06	0.7035831
49	0x3f97c741	1.1857682
50	0x3f6e1a75	0.9300912
51	0x3f5c22e3	0.8599073
52	0x3f725d0e	0.9467324
53	0x3f95a632	1.1691344
54	0x3f702f87	0.9382252
55	0x3f82e686	1.02266
56	0x3f614826	0.88000715
57	0x3f73e97a	0.9527813
58	0x3f68ba49	0.9090925
59	0x3f9cddde	1.2255208
60	0x3f86795f	1.050579
61	0x3f75627c	0.958534
62	0x3f8c01fa	1.0938103
63	0x3f5d66cc	0.8648498

res_blocks.0.conv2.weight f4 [64, 64, 3, 3]
0	0xbd6e424b	-0.05816869
1	0xbdaea0af	-0.08526742
2	0x3d7dc511	0.061955515
3	0x3cb5f9fb	0.022213927
4	0x3ced659b	0.028979113
5	0x3d7a93d6	0.061176144
6	0x3d91f999	0.07127685
7	0xbd4ef6ec	-0.05052845
8	0xbcf0ef6a	-0.029411037
9	0x3dc8c6f1	0.0980357
10	0xbda8b38c	-0.08237371
11	0x3d5e24b8	0.054234236
12	0x3d1f937f	0.038959023
13	0xbd9b20db	-0.07574626
14	0x3d0eda3e	0.0348761
15	0xbcf5182f	-0.029918758
16	0x3bf87737	0.007582571
17	0x3d79fe0b	0.06103329
18	0x3d9bda46	0.07609992
19	0x3ca29b36	0.019849401
20	0x3c771efd	0.015083072
21	0xbc6bad75	-0.014384617
22	0x3dbfe1c6	0.09369235
23	0xbc1f3608	-0.009717472
24	0xbcc4f3c2	-0.024042014
25	0x3d093bbd	0.033504236
26	0xbcfb401b	-0.030670216
27	0x3d3bb165	0.045823473
28	0x3cf154c3	0.029459363
29	0x3ccc8289	0.024964588
30	0x3de215a4	0.11039284
31	0xbced07eb	-0.02893444
32	0x3dae5c2a	0.08513673
33	0xbd10b572	-0.03532929
34	0x3d6bb26f	0.057543214
35	0x3c820bd8	0.015874788
36	0x3d71eb2b	0.059062164
37	0x3d278278	0.04089591
38	0x3bcb852f	0.006210945
39	0x3c22b173	0.0099300025
40	0xbd8bde8d	-0.068295576
41	0xbd307ca5	-0.04308762
42	0x3c2762c2	0.010216417
43	0x3c9adb74	0.018903472
44	0xbd8b10ce	-0.067903146
45	0xbd052658	-0.03250727
46	0xbd36c1b8	-0.04461834
47	0x3c8e1d24	0.01734788
48	0x3d17329c	0.0369135
49	0xbd2c129c	-0.042009935
50	0xbd7fe809	-0.062477145
51	0xbce3a49a	-0.02778845
52	0x3cc5e1dd	0.024155552
53	0x3da219fe	0.07915114
54	0x3cffe26b	0.031235894
55	0xbd358f16	-0.04432591
56	0xbc949cc9	-0.018141167
57	0xbd12a15b	-0.03579841
58	0xbd4d0bee	-0.050060205
59	0xbd8b3e98	-0.06799048
60	0xbc5c0000	-0.013427734
61	0x3ceb7643	0.028742915
62	0x3d53dc0b	0.05172352
63	0xbceaa9fb	-0.028645506
64	0xbd01756b	-0.03160612
65	0xbbbec397	-0.005821656
66	0xbe108736	-0.14114079
67	0x3ce59acd	0.028027916
68	0xbd84347b	-0.06455322
69	0xbd739258	-0.059465736
70	0xbcbdf7c4	-0.023189433
71	0x3ce1dc2d	0.027570808
72	0xbd0a5ea8	-0.033781677
73	0xbd43ebfd	-0.047832478
74	0x3cbef3d6	0.02330963
75	0x3d362e7e	0.044477932
76	0x3d6c459b	0.05768357
77	0xbdac3020	-0.084076166
78	0x3db141a9	0.08655102
79	0xbda73002	-0.08163454
80	0xbd28c4de	-0.041203372
81	0xbdb23aae	-0.087025985
82	0x3d839088	0.064240515
83	0xbc89cc5f	-0.016821085
84	0x3b97e9b3	0.0046360134
85	0x3c7cc64e	0.015428139
86	0xbd3a3f7e	-0.045470707
87	0x3cd5be2b	0.026091656
88	0xbd74b3eb	-0.059741896
89	0x3d0433f1	0.032276098
90	0xbc8473e3	-0.01616854
91	0xbe1ccc80	-0.15312386
92	0xbdcc0d47	-0.0996347
93	0xbd9fa08d	-0.077942945
94	0xbdbb681b	-0.09150716
95	0xbdf8b188	-0.121432364
96	0xbe136388	-0.14393437
97	0xbe0f69c1	-0.14005186
98	0xbd5ca198	-0.053865045
99	0xbd4ca556	-0.049962364
100	0xbd55259d	-0.052037824
101	0xbbcd82e8	-0.0062717088
102	0xbc8379de	-0.016049322
103	0x3d898f4b	0.06716784
104	0xbb639753	-0.0034727647
105	0x3d02d37b	0.031939965
106	0xbd5083bd	-0.050906885
107	0xbcc3f102	-0.023918632
108	0x3cef02c2	0.02917612
109	0x3d340bca	0.043956555
110	0xbcb9c0d4	-0.022674955
111	0x3d378395	0.04480322
112	0x3d358811	0.044319216
113	0xbdce738a	-0.10080631
114	0xbd31d729	-0.043418083
115	0xbae54274	-0.0017491118
116	0x3d9fd159	0.07803602
117	0xbbb26517	-0.0054441798
118	0x3d8be45a	0.06830664
119	0xbda4a041	-0.080383785
120	0x3d720d29	0.05909458
121	0x3aee0a87	0.0018161096
122	0xbd9607bb	-0.07325693
123	0xbc3904f3	-0.011292684
124	0x3bfd410b	0.007728701
125	0x3c9fd309	0.01950981
126	0x3de6a7de	0.11262487
127	0x3c496e49	0.01229436
128	0xbdc11353	-0.09427514
129	0xbcc3b1d9	-0.023888515
130	0x3cd794b1	0.026316019
131	0x3d537bde	0.0516318
132	0x3c47d004	0.012195591
133	0x3ced0f29	0.028937893
134	0xbdd90e60	-0.10598445
135	0xbd1c17bd	-0.038108576
136	0xbdc053a6	-0.09390955
137	0x3d96c572	0.073618785
138	0xbd8394cb	-0.064248644
139	0x3d3aab66	0.045573615
140	0xbd246287	-0.040133025
141	0xbdbb3857	-0.09141605
142	0xbc4b5ae3	-0.012411806
143	0xbce74236	-0.028229814
144	0xbce19724	-0.02753789
145	0xbdb6d01a	-0.08926411
146	0xbd835d4d	-0.0641428
147	0xbe663180	-0.2247982
148	0x3db1e7cc	0.0868679
149	0x3bc89f96	0.0061225398
150	0xbda133b4	-0.0787119
151	0xbd370836	-0.044685565
152	0xb89f1a9f	-7.5866694e-05
153	0xbbcc6157	-0.0062371898
154	0x3d6ccc96	0.057812296
155	0x3b107e6d	0.0022048012
156	0x3dcd2e7f	0.10018634
157	0x3c690dc1	0.014224471
158	0x3d9582a5	0.07300309
159	0xbca9f88e	-0.020748403
160	0xbd88683c	-0.06660506
161	0x3cfac95b	0.030613592
162	0x3d69849b	0.057011228
163	0xbbaf0739	-0.005341437
164	0x3d18c1c6	0.03729417
165	0xbd57a760	-0.052649856
166	0xbc99099a	-0.018681336
167	0x3d1c8c21	0.038219575
168	0xbdee764b	-0.11643656
169	0xbdbeed68	-0.093226254
170	0x3d331e57	0.043730106
171	0xbd95169f	-0.07279705
172	0xbe04ed32	-0.12981108
173	0x3de7006b	0.112793766
174	0x3d371ed0	0.04470712
175	0x3bfd959a	0.007738781
176	0x3c4af5c6	0.0123876985
177	0xbdafa976	-0.08577244
178	0x3e19a95d	0.15006013
179	0xbd00bc98	-0.031429857
180	0x3d1bb495	0.038014013
181	0x3d9e6c42	0.07735492
182	0x3cf3404b	0.029693743
183	0xbda1595f	-0.07878374
184	0x3d2d34ef	0.04228681
185	0x3d28c92e	0.041207485
186	0xbcf7f1b8	-0.030266628
187	0x3ca0d7c7	0.01963414
188	0x3c54bd96	0.012984654
189	0x3dce20e8	0.1006487
190	0xbd04efdd	-0.032455314
191	0x3d1d1b06	0.03835585
192	0xbdef7774	-0.11692706
193	0x3d9a7719	0.07542247
194	0xbdad9895	-0.08476368
195	0x3c402e1a	0.0117297415
196	0xbd82e082	-0.06390478
197	0xbddce9d7	-0.10786789
198	0xbd5761e4	-0.05258359
199	0xbd9aa527	-0.075510316
200	0xbbb2db9f	-0.00545831
201	0x3d1abee8	0.03777972
202	0xbb2a9fd4	-0.0026035206
203	0x3d12221e	0.035677068
204	0xbc3cd4c2	-0.011525335
205	0xbd386aa1	-0.045023564
206	0x3d92e29e	0.0717213
207	0xbda43378	-0.080176294
208	0xbc718af5	-0.014742603
209	0xbd296b27	-0.041361954
210	0xbe0ee36a	-0.13953939
211	0x3cd83b01	0.026395323
212	0xbb87cebb	-0.0041445172
213	0x3ca41906	0.020031463
214	0xbcdec0f6	-0.02719162
215	0xbdae4ecd	-0.08511124
216	0xbc8faeac	-0.017539345
217	0xbb02db30	-0.0019967072
218	0x3da386f9	0.07984728
219	0xbcd0aece	-0.025473978
220	0x3d9905b7	0.07471793
221	0x3cf107fd	0.029422754
222	0xbe5c8ea8	-0.21538794
223	0x3caca584	0.021075018
224	0xbdf7a3c6	-0.12091784
225	0x3d81267f	0.06306171
226	0xbd3eab4b	-0.046550076
227	0xbd91af0c	-0.07113466
228	0xbd813c48	-0.06310326
229	0x3d27c13e	0.040955774
230	0x3a55bc14	0.0008153331
231	0x3c7cce79	0.015430086
232	0xbd2bce9e	-0.041945092
233	0x3cd97a52	0.026547585
234	0xbce93af4	-0.028470494
235	0xbcfa6b6c	-0.0305688
236	0x3da5f600	0.081035614
237	0xbca574e6	-0.020197343
238	0xbd5c304f	-0.05375701
239	0x3c0265ca	0.007958839
240	0xbcf8eb1e	-0.03038555
241	0x3d8b34f5	0.0679721
242	0x3dbfd961	0.093676336
243	0x3c783386	0.015149003
244	0xbdac1c0b	-0.08403786
245	0xbda59feb	-0.080871426
246	0xbc9e6ace	-0.019338038
247	0xbd1bff27	-0.03808513
248	0xbcc64b95	-0.024205962
249	0xbac33734	-0.0014893771
250	0xbd03abd2	-0.032146282
251	0xbbc77b38	-0.006087687
252	0xbd7b86a2	-0.061407693
253	0xbd0aeae8	-0.03391543
254	0xbd0531cd	-0.032518197
255	0x3d447687	0.0479646

res_blocks.0.bn2.weight f4 [64]
0	0x3f5d6e89	0.8649679
1	0x3f6a0953	0.9142048
2	0x3f78298f	0.96938413
3	0x3f7aab14	0.97917295
4	0x3f6acd9f	0.9172
5	0x3f6e3e79	0.93064076
6	0x3f63a705	0.88926727
7	0x3f676b47	0.9039807
8	0x3f6b5137	0.919208
9	0x3f698a3a	0.9122654
10	0x3f81f0c1	1.0151597
11	0x3f673751	0.9031878
12	0x3f7f6b7f	0.997734
13	0x3f6d59e1	0.9271527
14	0x3f7ea786	0.9947437
15	0x3f683af8	0.9071498
16	0x3f62d895	0.8861173
17	0x3f6464f5	0.8921655
18	0x3f7c4c5a	0.98554003
19	0x3f67c0e6	0.90528715
20	0x3f5bb69a	0.858255
21	0x3f6c1f9c	0.9223573
22	0x3f705a1e	0.9388751
23	0x3f687a35	0.90811473
24	0x3f77c4e5	0.9678481
25	0x3f82e79a	1.0226929
26	0x3f644453	0.89166754
27	0x3f800f9d	1.0004765
28	0x3f6a47d8	0.91515875
29	0x3f72cbbd	0.9484213
30	0x3f66ca6f	0.9015264
31	0x3f67beef	0.90525717
32	0x3f6d7ace	0.9276551
33	0x3f5899e7	0.84609836
34	0x3f7ec471	0.99518496
35	0x3f72d609	0.9485784
36	0x3f7000c0	0.93751144
37	0x3f79b7f7	0.97546333
38	0x3f7e3352	0.9929706
39	0x3f752e8b	0.95774144
40	0x3f5a945b	0.8538262
41	0x3f5e0b30	0.8673582
42	0x3f64501f	0.89184755
43	0x3f837e60	1.0272942
44	0x3f684783	0.9073412
45	0x3f7967f2	0.9742423
46	0x3f7b757b	0.98226136
47	0x3f536b11	0.82585245
48	0x3f7d2616	0.9888624
49	0x3f673377	0.90312904
50	0x3f634433	0.8877594
51	0x3f7edde6	0.9955734
52	0x3f737886	0.9510578
53	0x3f615ce8	0.8803239
54	0x3f719504	0.94368005
55	0x3f783c6e	0.9696721
56	0x3f637987	0.8885731
57	0x3f7dd84a	0.99158156
58	0x3f618bfa	0.8810421
59	0x3f6e9f07	0.93211406
60	0x3f69674b	0.9117324
61	0x3f6db45f	0.9285335
62	0x3f688b8c	0.9083793
63	0x3f77335f	0.9656276

res_blocks.0.bn2.bias f4 [64]
0	0xbebf2aec	-0.37337434
1	0xbeb0c89e	-0.3452806
2	0xbe9b9330	-0.30385733
3	0xbe5238c3	-0.20529465
4	0xbe939aa3	-0.28828916
5	0xbeb943b4	-0.36184466
6	0xbe8828d0	-0.26593637
7	0xbe9d7385	-0.30752197
8	0xbe82d79d	-0.25555125
9	0xbe73969e	-0.23787925
10	0xbea471f0	-0.32118177
11	0xbe94e1d0	-0.2907853
12	0xbe8866f8	-0.2664106
13	0xbe58eae6	-0.21183357
14	0xbe8defc0	-0.27721977
15	0xbead89db	-0.33894238
16	0xbe9e61e7	-0.3093407
17	0xbeb8d733	-0.36101684
18	0xbeaa9698	-0.3331802
19	0xbe8c5739	-0.27410296
20	0xbecb8b76	-0.39754838
21	0xbeac9e1b	-0.33714375
22	0xbe9b3921	-0.30317023
23	0xbe713509	-0.23555388
24	0xbe565ea9	-0.20934547
25	0xbe4a50cd	-0.19757386
26	0xbe738156	-0.23779806
27	0xbe7f2671	-0.24917008
28	0xbea0f9cf	-0.3144059
29	0xbe9fa7b5	-0.31182638
30	0xbea1e013	-0.31616268
31	0xbe92e222	-0.2868815
32	0xbed0d0b5	-0.4078423
33	0xbe318499	-0.17335738
34	0xbe69e2f8	-0.22840488
35	0xbe93aa9a	-0.28841096
36	0xbe9aa454	-0.30203497
37	0xbe9ae71a	-0.30254441
38	0xbe9ac962	-0.30231768
39	0xbe94a83a	-0.29034597
40	0xbeb00e45	-0.34385887
41	0xbebad97e	-0.36494058
42	0xbead335d	-0.3382825
43	0xbe771b64	-0.24131542
44	0xbeac88cb	-0.33698115
45	0xbe64fea1	-0.22362758
46	0xbe86743f	-0.26260564
47	0xbe9f66d4	-0.3113314
48	0xbe87d05e	-0.2652616
49	0xbe9917b5	-0.299009
50	0xbe9b7d09	-0.30368832
51	0xbe45e0ae	-0.1932399
52	0xbe990550	-0.29886866
53	0xbe9e6fef	-0.30944774
54	0xbe74fcdd	-0.23924585
55	0xbe96b4da	-0.29434854
56	0xbe948527	-0.29007837
57	0xbe9bbfd5	-0.30419794
58	0xbe80eb5f	-0.25179574
59	0xbea08e22	-0.3135844
60	0xbeae781d	-0.34076014
61	0xbeaf93d2	-0.34292465
62	0xbe6f41c9	-0.23364939
63	0xbe749637	-0.23885427

res_blocks.0.bn2.running_mean f4 [64]
0	0xbf2af52f	-0.6678037
1	0x3e54116c	0.20709771
2	0xbf158463	-0.5840513
3	0xbf510939	-0.816547
4	0xbf60ecd9	-0.878614
5	0xbf23eee5	-0.640364
6	0xbeb9a5d8	-0.3625934
7	0xbdae34e7	-0.08506184
8	0xbef1c89a	-0.4722336
9	0xbe8d347a	-0.275791
10	0xbe7ade7a	-0.2449893
11	0xbf1da0b1	-0.6157332
12	0xbf4ad8ac	-0.79236865
13	0xbf16b6d0	-0.588727
14	0xbf06bdee	-0.5263356
15	0xbe91b1c0	-0.28455925
16	0xbf1f1334	-0.62138677
17	0xbebf17d9	-0.37322882
18	0xbf2665a5	-0.6499885
19	0xbf508a34	-0.8146088
20	0xbf48dac6	-0.7845882
21	0xbed19bba	-0.40939122
22	0xbf46e4b4	-0.77692723
23	0xbdaebc33	-0.0853199
24	0xbfd134fe	-1.6344297
25	0xbea1d84c	-0.31610334
26	0xbf1b8616	-0.60751474
27	0xbf32f109	-0.6989904
28	0xbf814295	-1.0098444
29	0xbe0fe0ff	-0.14050673
30	0x3f485d43	0.78267306
31	0x3ed5f90e	0.41791576
32	0xbe944dc4	-0.2896558
33	0xbfb66732	-1.4250243
34	0xbf49eb55	-0.78874713
35	0xbf0c809b	-0.54883736
36	0xbf46468f	-0.77451414
37	0xbf86b652	-1.052439
38	0xbf12cb12	-0.5734111
39	0xbeb3fad0	-0.35152292
40	0xbebc99e0	-0.36836147
41	0xbf1e718d	-0.61892015
42	0xbe20fdf8	-0.15721881
43	0xbef51af8	-0.47872138
44	0xbf3530bb	-0.7077748
45	0xbf3248c8	-0.69642305
46	0xbfaabac5	-1.3338248
47	0x3ed54ed8	0.41661716
48	0xbf30b2de	-0.6902293
49	0xbebe33ef	-0.37148997
50	0xbeaa83e6	-0.33303756
51	0x3d9a0d74	0.07522097
52	0xbe8ec78a	-0.2788661
53	0xbf070c9a	-0.52753603
54	0xbe3193e9	-0.1734158
55	0xbf4c41ef	-0.79788107
56	0xbebb92b7	-0.36635372
57	0xbdab5e3b	-0.083675824
58	0xbebb939d	-0.36636057
59	0xbeee90a6	-0.46594733
60	0xbf3cd44c	-0.7376144
61	0xbe9bbc76	-0.30417222
62	0xbf0b9ebb	-0.5453908
63	0x3e9a2b6c	0.30111253

res_blocks.0.bn2.running_var f4 [64]
0	0x3f7a1672	0.976905
1	0x3f7955ac	0.9739635
2	0x3f343496	0.7039274
3	0x3f5dc896	0.86634195
4	0x3f4a64ba	0.79059947
5	0x3f3f67be	0.74767673
6	0x3f2f6c6c	0.68524814
7	0x3f4f3e9f	0.8095493
8	0x3f737f3d	0.95116025
9	0x3f2d4392	0.6768123
10	0x3f3a2c68	0.7272401
11	0x3f67d4dd	0.9055918
12	0x3f4b473e	0.7940558
13	0x3f69cdc8	0.9132962
14	0x3f66ad79	0.9010845
15	0x3f76fbce	0.96477973
16	0x3f643616	0.8914503
17	0x3f59a901	0.85023504
18	0x3f729baf	0.94768804
19	0x3f484e4c	0.7824447
20	0x3f526ae5	0.8219436
21	0x3f4e4055	0.8056691
22	0x3f6b41dd	0.91897374
23	0x3f3a0c85	0.72675353
24	0x3f8d81fd	1.1055294
25	0x3f546804	0.82971215
26	0x3f808cbb	1.0042948
27	0x3f7e9197	0.994409
28	0x3f4feba3	0.8121893
29	0x3f82089c	1.0158877
30	0x3f4063a8	0.75152063
31	0x3f46786c	0.775275
32	0x3f606647	0.8765606
33	0x3fa57f84	1.292954
34	0x3f6a9765	0.9163726
35	0x3f405a7b	0.7513806
36	0x3f51ec56	0.82001245
37	0x3f710820	0.9415302
38	0x3f544e6c	0.8293216
39	0x3f5a9a11	0.85391337
40	0x3f3c9ca2	0.736765
41	0x3f870012	1.0546896
42	0x3f607fd4	0.8769505
43	0x3f53d36f	0.827445
44	0x3f78bb91	0.97161204
45	0x3f3b1699	0.73081356
46	0x3f7509a3	0.9571783
47	0x3f3b3366	0.731253
48	0x3f86a860	1.0520134
49	0x3f5eddbb	0.87057084
50	0x3f34ea1d	0.7066973
51	0x3f47454c	0.77840114
52	0x3f6546fa	0.89561427
53	0x3f716a88	0.9430318
54	0x3f50bff4	0.815429
55	0x3f676a1e	0.90396297
56	0x3f6c37f7	0.92272896
57	0x3f426f1d	0.75950795
58	0x3f3c7e3a	0.73630106
59	0x3f63eae1	0.8903027
60	0x3f6d7691	0.9275904
61	0x3f7db3ff	0.9910278
62	0x3f569760	0.8382473
63	0x3f47adc0	0.77999496

res_blocks.1.conv1.weight f4 [64, 64, 3, 3]
0	0xbd06bad6	-0.032893024
1	0xba20d36c	-0.000613502
2	0xbd65dfb3	-0.05612154
3	0x3de8e6de	0.113721594
4	0xbda070d3	-0.078340195
5	0xbabcdc13	-0.0014408849
6	0xbd374e07	-0.044752147
7	0xbd97880a	-0.07398994
8	0x3c83bb51	0.01608053
9	0xbd533d3d	-0.051572073
10	0xbba877dc	-0.0051412415
11	0x3dac0a6f	0.084004276
12	0xbb31d558	-0.002713522
13	0x3d9af5e7	0.075664334
14	0xbd74db94	-0.05977972
15	0xbcf6c2d8	-0.030122206
16	0x3dbeb318	0.09311503
17	0x3d02506f	0.03181499
18	0x3c9d84b2	0.019228313
19	0x3d317291	0.04332215
20	0xbdf42227	-0.119205765
21	0xbdc98a39	-0.09840817
22	0xbc9a380f	-0.018825559
23	0x3d15df8c	0.036590144
24	0xbcc7a0ff	-0.024368761
25	0x3e23b498	0.1598686
26	0x3db22ef5	0.087003626
27	0x3d564a2b	0.052316826
28	0xbd950dfb	-0.07278057
29	0x3c0daab9	0.0086466605
30	0xbca12192	-0.019669328
31	0x3d2a19ee	0.041528635
32	0xbd737c6c	-0.05944483
33	0x3cbbb6c2	0.022914294
34	0xbcefb3ae	-0.029260483
35	0x3d79ff32	0.06103439
36	0x3d00acdc	0.03141485
37	0xbc08fe24	-0.008361373
38	0x3d7aae7d	0.06120156
39	0xbd383089	-0.04496816
40	0x3d2c2e0d	0.042036105
41	0xbc98f221	-0.018670144
42	0xbc9404d1	-0.018068703
43	0x3dceb40c	0.10092935
44	0xbdfec51c	-0.124399394
45	0x3d60bc97	0.054867353
46	0xbd172c24	-0.03690733
47	0xbdd1a1fa	-0.10235973
48	0x3e125c0d	0.14292927
49	0x3d0bbe2e	0.034116916
50	0xbcacdc20	-0.021101058
51	0xbdd52cae	-0.104089126
52	0xbd721fb0	-0.05911225
53	0x3e1523a0	0.14564371
54	0x3d5fbda9	0.054624233
55	0x3da1db28	0.07903129
56	0xbd3f1e12	-0.046659537
57	0xbe1a2eda	-0.15056935
58	0x3d6e649c	0.058201417
59	0x3d1fd30f	0.03901964
60	0x3ccb635d	0.024827654
61	0x3cb6d146	0.022316586
62	0x3a6599ff	0.0008758604
63	0x3c55b613	0.013043898
64	0xbe28006c	-0.16406411
65	0x3cf64ab2	0.030064914
66	0x3c0eedd9	0.0087236995
67	0x3df22a76	0.11824505
68	0x3c30bfc3	0.010787907
69	0xbc467d9d	-0.0121149095
70	0xbd46b454	-0.048511818
71	0x3d0e908f	0.03480583
72	0x3d525853	0.051353764
73	0x3b84ac1a	0.0040488364
74	0x3d3e4434	0.046451762
75	0xbca1e499	-0.019762324
76	0xbd28589c	-0.04110013
77	0x3d8f8c1c	0.070091456
78	0xbcb69a4e	-0.022290375
79	0x3de7cb4e	0.11318074
80	0xbc588ae1	-0.013216705
81	0x3d687f89	0.056762252
82	0xbd0ddef0	-0.034636438
83	0xbda944cd	-0.08265076
84	0xbdbaa6ba	-0.09113832
85	0x3caa0678	0.020755038
86	0x3df73948	0.120714724
87	0x3de5739c	0.11203691
88	0x3b227011	0.0024786035
89	0xbb8eff82	-0.004363955
90	0xb9d8f431	-0.00041380667
91	0x39f87686	0.00047390553
92	0x3a680908	0.00088514434
93	0xbdcfc197	-0.10144346
94	0x3ccbf013	0.02489475
95	0xbcb0ec60	-0.021597087
96	0x3d64a8c5	0.055825014
97	0x3d8e74fa	0.06955905
98	0xbcbdb915	-0.023159543
99	0xbcfa9b58	-0.030591652
100	0x3d2453a9	0.040118847
101	0x3cb63973	0.02224419
102	0x3c25340f	0.0100832125
103	0xbdb2ac6f	-0.08724295
104	0x3e1f55fb	0.15560143
105	0xbd151c06	-0.03640368
106	0x3db04232	0.08606376
107	0x3ceb5ba9	0.02873023
108	0xbd842db5	-0.064540304
109	0xbdb5c428	-0.088753045
110	0x3caa889a	0.02081709
111	0x3d739981	0.059472565
112	0x3d5ea00f	0.054351863
113	0xbd530eb5	-0.051527698
114	0xbd9cf57f	-0.07664012
115	0x3c7cb1c5	0.015423243
116	0x3d3ad20c	0.045610473
117	0xbccedfd4	-0.025253214
118	0xbbcd99bc	-0.00627443
119	0x3d126c90	0.035748065
120	0xbc940eda	-0.018073488
121	0xbdf12d90	-0.117762685
122	0xbd31302b	-0.043258827
123	0xbcca3129	-0.024681645
124	0x3cdf3a86	0.027249586
125	0x3c48fffe	0.012268065
126	0x3d83d72b	0.064375244
127	0xbc12cdfc	-0.008960243
128	0x3d99e9bd	0.07515285
129	0xbe151886	-0.14560136
130	0x3db9a31b	0.09064313
131	0x3c8da3a3	0.017289942
132	0x3d8c099f	0.068377726
133	0x3cdcd0c8	0.026955023
134	0xbdb97a52	-0.09056534
135	0x3dd50e01	0.10403062
136	0xbb840eb4	-0.004030073
137	0x3c32cbd3	0.010912853
138	0xbda59cd5	-0.08086554
139	0xbc5d29c8	-0.013498731
140	0x3d798e0c	0.060926482
141	0x3d228e18	0.039686292
142	0xbd816f6f	-0.063200824
143	0xbc59a83d	-0.01328474
144	0x3b56de8c	0.0032786457
145	0x3c4338c8	0.011915393
146	0xbdb6111e	-0.088899836
147	0xbda9ea85	-0.08296684
148	0x3d973494	0.07383075
149	0xbc0c5ce3	-0.008567068
150	0x3d22e980	0.039773464
151	0x3c9e1298	0.019295976
152	0xbcf280fa	-0.029602516
153	0x3d1c955f	0.03822839
154	0x3e0d03df	0.13771008
155	0x3accd4d3	0.0015627391
156	0xbe4b4599	-0.19850768
157	0xbc16d116	-0.009205123
158	0xbd66ffb1	-0.05639619
159	0xbc744582	-0.01490915
160	0x3df79285	0.12088493
161	0x3cbc0d44	0.022955544
162	0xbdc5e9ac	-0.0966371
163	0x3bba6f57	0.0056895423
164	0x3d84e5cf	0.06489145
165	0xbdafbeba	-0.085813
166	0x3d529c44	0.051418558
167	0x3dae25e5	0.085033216
168	0xbc95d9b1	-0.01829228
169	0x3d5687f7	0.05237576
170	0xbc7407a9	-0.014894404
171	0xbd0c5bbb	-0.03426717
172	0x3d81f439	0.0634541
173	0xbc5a940c	-0.013340961
174	0x3ab2004b	0.001358041
175	0xbd96d3e3	-0.07364633
176	0xbd99f78b	-0.07517918
177	0x3d4de691	0.050268713
178	0xbbe18ce7	-0.006883252
179	0xbc70050b	-0.01464964
180	0xbc568db1	-0.013095305
181	0xbd7bce84	-0.061476246
182	0xbcf963d5	-0.030443111
183	0x3d642662	0.055700667
184	0x3d4dcb65	0.0502428
185	0x3d79e147	0.061005857
186	0x3d108bcf	0.035289582
187	0x3d5c0ea1	0.05372489
188	0x3c0ac6e2	0.008470269
189	0x3d5c2b33	0.053752135
190	0xbcef8a42	-0.029240731
191	0xbc3b8819	-0.011446022
192	0xbd5619de	-0.052270763
193	0xbe306993	-0.17227773
194	0xbd8de22f	-0.06927907
195	0x3d209032	0.039200015
196	0x3d36290e	0.044472747
197	0xbd2163e2	-0.039401896
198	0x3c1f9713	0.009740609
199	0x3d6a3ace	0.057184987
200	0x3d864360	0.065558195
201	0xbcb584de	-0.022158083
202	0xbd37c36c	-0.044864103
203	0x3dc5b8cc	0.09654388
204	0xbd4f952e	-0.05067938
205	0x3c59131a	0.013249183
206	0xbd67d901	-0.056603435
207	0x3d891749	0.066938944
208	0xbd097533	-0.033559036
209	0xbe109b23	-0.1412168
210	0xbd085e69	-0.03329316
211	0xbd1406ee	-0.03613942
212	0x3c8bdb1e	0.017072257
213	0xbdab3af1	-0.083608516
214	0x3d89c112	0.06726278
215	0x3e0fd8fd	0.14047618
216	0xbd5ed195	-0.05439909
217	0x3c523457	0.012829862
218	0x3b67e634	0.0035385014
219	0xbcd955b2	-0.02653012
220	0x3aa3f218	0.0012508063
221	0xbc18bb98	-0.00932207
222	0xbda86896	-0.08223073
223	0xbd29438a	-0.041324176
224	0x3c95ef93	0.018302714
225	0x3e194aea	0.14969984
226	0x3d6ccbf2	0.057811685
227	0x3dde6858	0.10859746
228	0xbca7046d	-0.020387853
229	0xbd9f5026	-0.07778959
230	0xbc50ff8e	-0.0127562415
231	0xbda1ebee	-0.07906328
232	0x3d9b18b3	0.075730704
233	0x3cde7e7a	0.027159918
234	0x3ddb4f4e	0.107084855
235	0xbd3030e6	-0.043015383
236	0x3d3293aa	0.043597855
237	0xbe0cc5ac	-0.13747281
238	0x3d1c85d3	0.038213562
239	0xbce2ef19	-0.027701901
240	0x3c87cc12	0.0165768
241	0xbdc0209a	-0.09381218
242	0xbd0da434	-0.034580424
243	0xbd82c203	-0.06384661
244	0x3d3824a9	0.044956837
245	0x3c804a82	0.015660528
246	0xbd8d16f0	-0.068891406
247	0x3d8b2b11	0.06795324
248	0x3d61727d	0.055040825
249	0x3caeda08	0.0213442
250	0x3c2bb6ad	0.010480565
251	0x3d0c00be	0.034180395
252	0xbdc8541c	-0.097816676
253	0xbe34ba37	-0.1764916
254	0x3da20c94	0.07912555
255	0x3c16228f	0.009163513

res_blocks.1.bn1.weight f4 [64]
0	0x3f6963b0	0.91167736
1	0x3f6f17e5	0.93395835
2	0x3f81f65f	1.0153311
3	0x3f7d7647	0.990086
4	0x3f791e43	0.973118
5	0x3f7a8bb9	0.9786945
6	0x3f76f890	0.96473026
7	0x3f85ff30	1.0468502
8	0x3f713764	0.94225144
9	0x3f832c93	1.0247978
10	0x3f76fbc5	0.9647792
11	0x3f83524a	1.0259488
12	0x3f7d4ad5	0.9894231
13	0x3f798b00	0.9747772
14	0x3f677322	0.90410054
15	0x3f7b4723	0.9815542
16	0x3f7fcd00	0.9992218
17	0x3f7dba77	0.9911265
18	0x3f65c085	0.89746886
19	0x3f700d4a	0.9377028
20	0x3f6fd59f	0.93685335
21	0x3f75ae59	0.9596916
22	0x3f815ca7	1.01064
23	0x3f853a78	1.0408468
24	0x3f848e24	1.0355878
25	0x3f6cd1f2	0.9250785
26	0x3f772cfc	0.96553016
27	0x3f60cc20	0.8781147
28	0x3f84e95e	1.0383718
29	0x3f7bf684	0.9842303
30	0x3f8121c8	1.0088434
31	0x3f6fc1ea	0.93655264
32	0x3f7dfef7	0.9921717
33	0x3f79c057	0.9755911
34	0x3f7de849	0.99182564
35	0x3f797e86	0.97458684
36	0x3f784587	0.9698109
37	0x3f809c81	1.0047761
38	0x3f836dc1	1.0267869
39	0x3f79d184	0.9758532
40	0x3f823b66	1.0174377
41	0x3f7cdc87	0.98774
42	0x3f643803	0.8914797
43	0x3f7d63e3	0.9898054
44	0x3f770387	0.9648976
45	0x3f6b8a51	0.9200793
46	0x3f6e0f13	0.9299175
47	0x3f81d6e0	1.01437
48	0x3f75ee74	0.96066976
49	0x3f8133aa	1.0093892
50	0x3f7448ff	0.95423883
51	0x3f745629	0.9544397
52	0x3f70c9e8	0.94058084
53	0x3f76235b	0.961477
54	0x3f793e0b	0.97360295
55	0x3f805130	1.0024776
56	0x3f832124	1.0244489
57	0x3f7c253d	0.9849432
58	0x3f79b3d3	0.97540015
59	0x3f70c5ca	0.940518
60	0x3f80a081	1.0048982
61	0x3f8354a5	1.0260206
62	0x3f819a02	1.0125124
63	0x3f85f500	1.0465393

res_blocks.1.bn1.bias f4 [64]
0	0xbe868649	-0.26274326
1	0xbe6ccc8e	-0.23124906
2	0xbe73bc68	-0.2380234
3	0xbe9764d5	-0.29569116
4	0xbe56f29b	-0.20990984
5	0xbe4c23e1	-0.19935562
6	0xbe1df77d	-0.1542644
7	0xbe67b1a9	-0.22626366
8	0xbe88cdbf	-0.26719472
9	0xbe9a78d3	-0.30170307
10	0xbe7c6e05	-0.24651344
11	0xbe8b7b03	-0.27242288
12	0xbe8492b8	-0.25893188
13	0xbe859869	-0.26092842
14	0xbe81308d	-0.25232354
15	0xbe71abc8	-0.23600686
16	0xbe5be5f7	-0.21474443
17	0xbe65a4a3	-0.22426085
18	0xbea91674	-0.33024943
19	0xbe7994cc	-0.24373168
20	0xbe5f53c4	-0.21809298
21	0xbe766ea3	-0.24065642
22	0xbe67d3b4	-0.22639352
23	0xbe583b42	-0.21116355
24	0xbe883ea3	-0.26610288
25	0xbe8ce59d	-0.2751893
26	0xbe2c17a3	-0.16805892
27	0xbe8f7734	-0.28020632
28	0xbe92ba00	-0.28657532
29	0xbe2e1a42	-0.17002204
30	0xbe6a370a	-0.22872558
31	0xbe734062	-0.23755029
32	0xbe8f44fc	-0.27982318
33	0xbea34215	-0.31886354
34	0xbe7a7604	-0.24459082
35	0xbe2b1421	-0.16706897
36	0xbe8748ae	-0.26422638
37	0xbe5b9586	-0.21443757
38	0xbe487c55	-0.19578679
39	0xbe66eaed	-0.22550555
40	0xbe5fce7c	-0.21856111
41	0xbe5a5d7d	-0.21324725
42	0xbe8dd70d	-0.27703133
43	0xbeac2839	-0.33624437
44	0xbe6cc548	-0.23122132
45	0xbe8d7509	-0.27628353
46	0xbe751df6	-0.2393721
47	0xbe5c4730	-0.21511531
48	0xbeacffe3	-0.33788976
49	0xbe3befdc	-0.18353218
50	0xbe48a440	-0.19593906
51	0xbe5cd66d	-0.21566172
52	0xbe158024	-0.14599663
53	0xbe5a19fa	-0.21298972
54	0xbe51667e	-0.20449254
55	0xbe2f6eef	-0.17132162
56	0xbe591137	-0.21197973
57	0xbe8a1efe	-0.2697677
58	0xbe821a36	-0.25410622
59	0xbe96e843	-0.29474077
60	0xbe5b9d96	-0.21446833
61	0xbe105792	-0.14095905
62	0xbe8d5b95	-0.27608934
63	0xbe6953af	-0.22785829
